…
layer\n","    tf.keras.layers.Dense(512, activation='relu'),\n","    tf.keras.layers.Dense(3, activation='softmax')\n","])\n","model.summary()\n","\n","model.compile(loss = 'categorical_crossentropy', optimizer=tf.keras.optimizers.Adam(), metrics=['accuracy'])\n","\n"],"execution_count":11,"outputs":[{"output_type":"stream","text":["Model: \"sequential\"\n","_________________________________________________________________\n","Layer (type)                 Output Shape              Param #   \n","=================================================================\n","conv2d (Conv2D)              (None, 118, 118, 64)      1792      \n","_________________________________________________________________\n","max_pooling2d (MaxPooling2D) (None, 59, 59, 64)        0         \n","_________________________________________________________________\n","conv2d_1 (Conv2D)            (None, 57, 57, 64)        36928     \n","_________________________________________________________________\n","max_pooling2d_1 (MaxPooling2 (None, 28, 28, 64)        0         \n","_________________________________________________________________\n","conv2d_2 (Conv2D)            (None, 26, 26, 64)        36928     \n","_________________________________________________________________\n","max_pooling2d_2 (MaxPooling2 (None, 13, 13, 64)        0         \n","_________________________________________________________________\n","flatten (Flatten)            (None, 10816)             0         \n","_________________________________________________________________\n","dropout (Dropout)            (None, 10816)             0         \n","_________________________________________________________________\n","dense (Dense)                (None, 512)               5538304   \n","_________________________________________________________________\n","dense_1 (Dense)              (None, 3)                 1539      \n","=================================================================\n","Total params: 5,615,491\n","Trainable params: 5,615,491\n","Non-trainable params: 0\n","_________________________________________________________________\n"],"name":"stdout"}]},{"cell_type":"code","metadata":{"id":"vQhFcay4JIw9","colab_type":"code","outputId":"47a29a00-4cc3-49fc-da58-2244b1d24f16","executionInfo":{"st
…
